…
test_scp_path                                     :data/test/fbank.scp
test_lab_path                                     :data/test/phn_text
test_trans_path                                   :data/test/transcript_phn_text
decode_type                                       :Nono
beam_width                                        :10
lm_alpha                                          :0
lm_path                                           :data/lm_phone_bg.arpa
Reading vocabulary from data/units
Vocabulary size is 42
Reading 5496 lines from data/train/phn_text
Reading 897 lines from data/dev/phn_text
Number of parameters 16526304
0 Sequential(
  (0): LayerCNN(
    (conv): Conv2d(1, 32, kernel_size=(3, 3), stride=(1, 2), padding=(1, 1))
    (batch_norm): BatchNorm2d(32, eps=1e-05, momentum=0.1, affine=True, track_running_stats=True)
    (activation): ReLU(inplace=True)
    (dropout): Dropout(p=0.2, inplace=False)
  )
  (1): LayerCNN(
    (conv): Conv2d(32, 32, kernel_size=(3, 3), stride=(2, 2), padding=(1, 1))
    (batch_norm): BatchNorm2d(32, eps=1e-05, momentum=0.1, affine=True, track_running_stats=True)
    (activation): ReLU(inplace=True)
    (dropout): Dropout(p=0.2, inplace=False)
  )
)
1 Sequential(
  (0): BatchRNN(
    (rnn): LSTM(1952, 384, bias=False, bidirectional=True)
    (dropout): Dropout(p=0.2, inplace=False)
  )
  (1): BatchRNN(
    (batch_norm): BatchNorm1d(768, eps=1e-05, momentum=0.1, affine=True, track_running_stats=True)
    (rnn): LSTM(768, 384, bias=False, bidirectional=True)
    (dropout): Dropout(p=0.2, inplace=False)
  )
)
2 Embedding(42, 512)
3 LSTM(512, 384, batch_first=True, bidirectional=True)
4 Linear(in_features=768, out_features=768, bias=False)
5 MultiHeadedAttention(
  (linears): ModuleList(
    (0): Linear(in_features=768, out_features=768, bias=True)
    (1): Linear(in_features=768, out_features=768, bias=True)
    (2): Linear(in_features=768, out_features=768, bias=True)
    (3): Linear(in_features=768, out_features=768, bias=True)
  )
  (dropout): Dropout(p=0.1, inplace=False)
)
6 Sequential(
  (0): BatchNorm1d(1536, eps=1e-05, momentum=0.1, affine=True, track_running_stats=True)
  (1): Linear(in_features=1536, out_features=42, bias=False)
)
7 LogSoftmax()
{'num_epoches': 500, 'end_adjust_acc': 2, 'mel': False, 'seed': 1, 'decay': 0.5, 'learning_rate': 0.001, 'weight_decay': 0.0005, 'batch_size': 8, 'feature_type': 'fbank', 'n_feats': 81}
Traceback (most recent call last):
  File "steps/train_ctc.py", line 263, in <module>
    main(conf)
  File "steps/train_ctc.py", line 152, in main
    from visdom import Visdom
…
